…
│                     │ 64)               │            │                   │
├─────────────────────┼───────────────────┼────────────┼───────────────────┤
│ batch_normalizatio… │ (None, 32, 32,    │        256 │ conv2d_117[0][0]  │
│ (BatchNormalizatio… │ 64)               │            │                   │
├─────────────────────┼───────────────────┼────────────┼───────────────────┤
│ add_50 (Add)        │ (None, 32, 32,    │          0 │ p_re_lu_56[0][0], │
│                     │ 64)               │            │ batch_normalizat… │
├─────────────────────┼───────────────────┼────────────┼───────────────────┤
│ conv2d_118 (Conv2D) │ (None, 32, 32, 1) │        577 │ add_50[0][0]      │
├─────────────────────┼───────────────────┼────────────┼───────────────────┤
│ p_re_lu_73 (PReLU)  │ (None, 32, 32, 1) │          1 │ conv2d_118[0][0]  │
├─────────────────────┼───────────────────┼────────────┼───────────────────┤
│ flatten_2 (Flatten) │ (None, 1024)      │          0 │ p_re_lu_73[0][0]  │
├─────────────────────┼───────────────────┼────────────┼───────────────────┤
│ dense_4 (Dense)     │ (None, 256)       │    262,400 │ flatten_2[0][0]   │
├─────────────────────┼───────────────────┼────────────┼───────────────────┤
│ p_re_lu_74 (PReLU)  │ (None, 256)       │        256 │ dense_4[0][0]     │
├─────────────────────┼───────────────────┼────────────┼───────────────────┤
│ dropout_2 (Dropout) │ (None, 256)       │          0 │ p_re_lu_74[0][0]  │
├─────────────────────┼───────────────────┼────────────┼───────────────────┤
│ dense_5 (Dense)     │ (None, 65536)     │ 16,842,752 │ dropout_2[0][0]   │
├─────────────────────┼───────────────────┼────────────┼───────────────────┤
│ activation          │ (None, 65536)     │          0 │ dense_5[0][0]     │
│ (Activation)        │                   │            │                   │
├─────────────────────┼───────────────────┼────────────┼───────────────────┤
│ reshape_2 (Reshape) │ (None, 256, 256,  │          0 │ activation[0][0]  │
│                     │ 1)                │            │                   │
└─────────────────────┴───────────────────┴────────────┴───────────────────┘
…
m3s[0m 21ms/step

Generating rainfall (log) from WMAE
Saved raw predictions to /nlsasfs/home/precipitation/midhunm/AI4KLIM/EXPMNTS/P07A_N123S123_L12_I123_B123_R1/codes/../p07a_s03_l01_i01_b01_r01_out_raw.npy

Initiate experiment: p07a_n01_l01_i01_b01_r01
Configuring model architecture
#### MODEL SUMMARY ####
Model: "LINEAR-DENSE"
┏━━━━━━━━━━━━━━━━━━━━━━━━━━━━━━━━━┳━━━━━━━━━━━━━━━━━━━━━━━━┳━━━━━━━━━━━━━━━┓
┃ Layer (type)                    ┃ Output Shape           ┃       Param # ┃
┡━━━━━━━━━━━━━━━━━━━━━━━━━━━━━━━━━╇━━━━━━━━━━━━━━━━━━━━━━━━╇━━━━━━━━━━━━━━━┩
│ input_layer (InputLayer)        │ (None, 32, 32, 3)      │             0 │
├─────────────────────────────────┼────────────────────────┼───────────────┤
│ flatten (Flatten)               │ (None, 3072)           │             0 │
├─────────────────────────────────┼────────────────────────┼───────────────┤
│ dropout (Dropout)               │ (None, 3072)           │             0 │
├─────────────────────────────────┼────────────────────────┼───────────────┤
│ dense (Dense)                   │ (None, 256)            │       786,688 │
├─────────────────────────────────┼────────────────────────┼───────────────┤
│ p_re_lu (PReLU)                 │ (None, 256)            │           256 │
├─────────────────────────────────┼────────────────────────┼───────────────┤
│ dense_1 (Dense)                 │ (None, 65536)          │    16,842,752 │
├─────────────────────────────────┼────────────────────────┼───────────────┤
│ p_re_lu_1 (PReLU)               │ (None, 65536)          │        65,536 │
├─────────────────────────────────┼────────────────────────┼───────────────┤
│ reshape (Reshape)               │ (None, 256, 256, 1)    │             0 │
└─────────────────────────────────┴────────────────────────┴───────────────┘
 Total params: 17,695,232 (67.50 MB)
 Trainable params: 17,695,232 (67.50 MB)
 Non-trainable params: 0 (0.00 B)
None
Train Dataset Element Spec: (TensorSpec(shape=(None, 32, 32, 3), dtype=tf.float64, name=None), TensorSpec(shape=(None, 256, 256, 1), dtype=tf.float32, name=None))
Valid Dataset Element Spec: (TensorSpec(shape=(None, 32, 32, 3), dtype=tf.float64, name=None), TensorSpec(shape=(None, 256, 256, 1), dtype=tf.float32, name=None))
…
[1m0s[0m 3ms/step

Generating rainfall (log) from WMAE
Saved raw predictions to /nlsasfs/home/precipitation/midhunm/AI4KLIM/EXPMNTS/P07A_N123S123_L12_I123_B123_R1/codes/../p07a_n01_l01_i01_b01_r01_out_raw.npy

Initiate experiment: p07a_n02_l01_i01_b01_r01
Configuring model architecture
#### MODEL SUMMARY ####
Model: "CONV-DENSE"
┏━━━━━━━━━━━━━━━━━━━━━━━━━━━━━━━━━┳━━━━━━━━━━━━━━━━━━━━━━━━┳━━━━━━━━━━━━━━━┓
┃ Layer (type)                    ┃ Output Shape           ┃       Param # ┃
┡━━━━━━━━━━━━━━━━━━━━━━━━━━━━━━━━━╇━━━━━━━━━━━━━━━━━━━━━━━━╇━━━━━━━━━━━━━━━┩
│ input_layer_1 (InputLayer)      │ (None, 32, 32, 3)      │             0 │
├─────────────────────────────────┼────────────────────────┼───────────────┤
│ conv2d (Conv2D)                 │ (None, 32, 32, 16)     │           448 │
├─────────────────────────────────┼────────────────────────┼───────────────┤
│ p_re_lu_2 (PReLU)               │ (None, 32, 32, 16)     │            16 │
├─────────────────────────────────┼────────────────────────┼───────────────┤
│ average_pooling2d               │ (None, 16, 16, 16)     │             0 │
│ (AveragePooling2D)              │                        │               │
├─────────────────────────────────┼────────────────────────┼───────────────┤
│ batch_normalization             │ (None, 16, 16, 16)     │            64 │
│ (BatchNormalization)            │                        │               │
├─────────────────────────────────┼────────────────────────┼───────────────┤
│ conv2d_1 (Conv2D)               │ (None, 16, 16, 64)     │         9,280 │
├─────────────────────────────────┼────────────────────────┼───────────────┤
│ p_re_lu_3 (PReLU)               │ (None, 16, 16, 64)     │            64 │
├─────────────────────────────────┼────────────────────────┼───────────────┤
│ average_pooling2d_1             │ (None, 8, 8, 64)       │             0 │
│ (AveragePooling2D)              │                        │               │
├─────────────────────────────────┼────────────────────────┼───────────────┤
│ batch_normalization_1           │ (None, 8, 8, 64)       │           256 │
│ (BatchNormalization)            │                        │               │
├─────────────────────────────────┼────────────────────────┼───────────────┤
│ conv2d_2 (Conv2D)               │ (None, 8, 8, 128)      │        73,856 │
├─────────────────────────────────┼────────────────────────┼───────────────┤
│ p_re_lu_4 (PReLU)               │ (None, 8, 8, 128)      │           128 │
├─────────────────────────────────┼────────────────────────┼───────────────┤
│ average_pooling2d_2             │ (None, 4, 4, 128)      │             0 │
│ (AveragePooling2D)              │                        │               │
├─────────────────────────────────┼────────────────────────┼───────────────┤
│ batch_normalization_2           │ (None, 4, 4, 128)      │           512 │
│ (BatchNormalization)            │                        │               │
├─────────────────────────────────┼────────────────────────┼───────────────┤
│ flatten_1 (Flatten)             │ (None, 2048)           │             0 │
├─────────────────────────────────┼────────────────────────┼───────────────┤
│ dropout_1 (Dropout)             │ (None, 2048)           │             0 │
├─────────────────────────────────┼────────────────────────┼───────────────┤
│ dense_2 (Dense)                 │ (None, 256)            │       524,544 │
├─────────────────────────────────┼────────────────────────┼───────────────┤
│ p_re_lu_5 (PReLU)               │ (None, 256)            │           256 │
├─────────────────────────────────┼────────────────────────┼───────────────┤
│ dense_3 (Dense)                 │ (None, 65536)          │    16,842,752 │
├─────────────────────────────────┼────────────────────────┼───────────────┤
│ reshape_1 (Reshape)             │ (None, 256, 256, 1)    │             0 │
└─────────────────────────────────┴────────────────────────┴───────────────┘
 Total params: 17,452,176 (66.57 MB)
 Trainable params: 17,451,760 (66.57 MB)
 Non-trainable params: 416 (1.62 KB)
None
Train Dataset Element Spec: (TensorSpec(shape=(None, 32, 32, 3), dtype=tf.float64, name=None), TensorSpec(shape=(None, 256, 256, 1), dtype=tf.float32, name=None))
Valid Dataset Element Spec: (TensorSpec(shape=(None, 32, 32, 3), dtype=tf.float64, name=None), TensorSpec(shape=(None, 256, 256, 1), dtype=tf.float32, name=None))
…
[0m [1m1s[0m 5ms/step

Generating rainfall (log) from WMAE
Saved raw predictions to /nlsasfs/home/precipitation/midhunm/AI4KLIM/EXPMNTS/P07A_N123S123_L12_I123_B123_R1/codes/../p07a_n02_l01_i01_b01_r01_out_raw.npy

Initiate experiment: p07a_n03_l01_i01_b01_r01
Configuring model architecture
#### MODEL SUMMARY ####
Model: "FSRCNN"
┏━━━━━━━━━━━━━━━━━━━━━━━━━━━━━━━━━┳━━━━━━━━━━━━━━━━━━━━━━━━┳━━━━━━━━━━━━━━━┓
┃ Layer (type)                    ┃ Output Shape           ┃       Param # ┃
┡━━━━━━━━━━━━━━━━━━━━━━━━━━━━━━━━━╇━━━━━━━━━━━━━━━━━━━━━━━━╇━━━━━━━━━━━━━━━┩
│ input_layer_2 (InputLayer)      │ (None, 32, 32, 3)      │             0 │
├─────────────────────────────────┼────────────────────────┼───────────────┤
│ conv2d_3 (Conv2D)               │ (None, 32, 32, 64)     │         4,864 │
├─────────────────────────────────┼────────────────────────┼───────────────┤
│ p_re_lu_6 (PReLU)               │ (None, 32, 32, 64)     │            64 │
├─────────────────────────────────┼────────────────────────┼───────────────┤
│ conv2d_4 (Conv2D)               │ (None, 32, 32, 32)     │         2,080 │
├─────────────────────────────────┼────────────────────────┼───────────────┤
│ p_re_lu_7 (PReLU)               │ (None, 32, 32, 32)     │            32 │
├─────────────────────────────────┼────────────────────────┼───────────────┤
│ conv2d_5 (Conv2D)               │ (None, 32, 32, 32)     │         9,248 │
├─────────────────────────────────┼────────────────────────┼───────────────┤
│ p_re_lu_8 (PReLU)               │ (None, 32, 32, 32)     │            32 │
├─────────────────────────────────┼────────────────────────┼───────────────┤
│ conv2d_6 (Conv2D)               │ (None, 32, 32, 32)     │         9,248 │
├─────────────────────────────────┼────────────────────────┼───────────────┤
│ p_re_lu_9 (PReLU)               │ (None, 32, 32, 32)     │            32 │
├─────────────────────────────────┼────────────────────────┼───────────────┤
│ conv2d_7 (Conv2D)               │ (None, 32, 32, 32)     │         9,248 │
├─────────────────────────────────┼────────────────────────┼───────────────┤
│ p_re_lu_10 (PReLU)              │ (None, 32, 32, 32)     │            32 │
├─────────────────────────────────┼────────────────────────┼───────────────┤
│ conv2d_8 (Conv2D)               │ (None, 32, 32, 32)     │         9,248 │
├─────────────────────────────────┼────────────────────────┼───────────────┤
│ p_re_lu_11 (PReLU)              │ (None, 32, 32, 32)     │            32 │
├─────────────────────────────────┼────────────────────────┼───────────────┤
│ conv2d_9 (Conv2D)               │ (None, 32, 32, 64)     │         2,112 │
├─────────────────────────────────┼────────────────────────┼───────────────┤
│ p_re_lu_12 (PReLU)              │ (None, 32, 32, 64)     │            64 │
├─────────────────────────────────┼────────────────────────┼───────────────┤
│ conv2d_transpose                │ (None, 64, 64, 128)    │        73,856 │
│ (Conv2DTranspose)               │                        │               │
├─────────────────────────────────┼────────────────────────┼───────────────┤
│ p_re_lu_13 (PReLU)              │ (None, 64, 64, 128)    │           128 │
├─────────────────────────────────┼────────────────────────┼───────────────┤
│ conv2d_transpose_1              │ (None, 128, 128, 128)  │       147,584 │
│ (Conv2DTranspose)               │                        │               │
├─────────────────────────────────┼────────────────────────┼───────────────┤
│ p_re_lu_14 (PReLU)              │ (None, 128, 128, 128)  │           128 │
├─────────────────────────────────┼────────────────────────┼───────────────┤
│ conv2d_transpose_2              │ (None, 256, 256, 128)  │       147,584 │
│ (Conv2DTranspose)               │                        │               │
├─────────────────────────────────┼────────────────────────┼───────────────┤
│ p_re_lu_15 (PReLU)              │ (None, 256, 256, 128)  │           128 │
├─────────────────────────────────┼────────────────────────┼───────────────┤
│ conv2d_10 (Conv2D)              │ (None, 256, 256, 1)    │         1,153 │
└─────────────────────────────────┴────────────────────────┴───────────────┘
 Total params: 416,897 (1.59 MB)
 Trainable params: 416,897 (1.59 MB)
 Non-trainable params: 0 (0.00 B)
None
Train Dataset Element Spec: (TensorSpec(shape=(None, 32, 32, 3), dtype=tf.float64, name=None), TensorSpec(shape=(None, 256, 256, 1), dtype=tf.float32, name=None))
Valid Dataset Element Spec: (TensorSpec(shape=(None, 32, 32, 3), dtype=tf.float64, name=None), TensorSpec(shape=(None, 256, 256, 1), dtype=tf.float32, name=None))
…
│                     │ 64)               │            │                   │
├─────────────────────┼───────────────────┼────────────┼───────────────────┤
│ batch_normalizatio… │ (None, 32, 32,    │        256 │ conv2d_242[0][0]  │
│ (BatchNormalizatio… │ 64)               │            │                   │
├─────────────────────┼───────────────────┼────────────┼───────────────────┤
│ add_101 (Add)       │ (None, 32, 32,    │          0 │ p_re_lu_130[0][0… │
│                     │ 64)               │            │ batch_normalizat… │
├─────────────────────┼───────────────────┼────────────┼───────────────────┤
│ conv2d_243 (Conv2D) │ (None, 32, 32, 1) │        577 │ add_101[0][0]     │
├─────────────────────┼───────────────────┼────────────┼───────────────────┤
│ p_re_lu_147 (PReLU) │ (None, 32, 32, 1) │          1 │ conv2d_243[0][0]  │
├─────────────────────┼───────────────────┼────────────┼───────────────────┤
│ flatten_5 (Flatten) │ (None, 1024)      │          0 │ p_re_lu_147[0][0] │
├─────────────────────┼───────────────────┼────────────┼───────────────────┤
│ dense_14 (Dense)    │ (None, 256)       │    262,400 │ flatten_5[0][0]   │
├─────────────────────┼───────────────────┼────────────┼───────────────────┤
│ p_re_lu_148 (PReLU) │ (None, 256)       │        256 │ dense_14[0][0]    │
├─────────────────────┼───────────────────┼────────────┼───────────────────┤
│ dropout_5 (Dropout) │ (None, 256)       │          0 │ p_re_lu_148[0][0] │
├─────────────────────┼───────────────────┼────────────┼───────────────────┤
│ dense_15 (Dense)    │ (None, 65536)     │ 16,842,752 │ dropout_5[0][0]   │
├─────────────────────┼───────────────────┼────────────┼───────────────────┤
│ dense_16 (Dense)    │ (None, 65536)     │ 16,842,752 │ dropout_5[0][0]   │
├─────────────────────┼───────────────────┼────────────┼───────────────────┤
│ dense_17 (Dense)    │ (None, 65536)     │ 16,842,752 │ dropout_5[0][0]   │
├─────────────────────┼───────────────────┼────────────┼───────────────────┤
│ reshape_9 (Reshape) │ (None, 256, 256,  │          0 │ dense_15[0][0]    │
│                     │ 1)                │            │                   │
├─────────────────────┼───────────────────┼────────────┼───────────────────┤
│ reshape_10          │ (None, 256, 256,  │          0 │ dense_16[0][0]    │
…
0m 23ms/step

Generating rainfall (log) from Gamma Distribution
Saved raw predictions to /nlsasfs/home/precipitation/midhunm/AI4KLIM/EXPMNTS/P07A_N123S123_L12_I123_B123_R1/codes/../p07a_s03_l02_i01_b01_r01_out_raw.npy

Initiate experiment: p07a_n01_l02_i01_b01_r01
Configuring model architecture
#### MODEL SUMMARY ####
Model: "LINEAR-DENSE-x3"
┏━━━━━━━━━━━━━━━━━━━━━┳━━━━━━━━━━━━━━━━━━━┳━━━━━━━━━━━━┳━━━━━━━━━━━━━━━━━━━┓
┃ Layer (type)        ┃ Output Shape      ┃    Param # ┃ Connected to      ┃
┡━━━━━━━━━━━━━━━━━━━━━╇━━━━━━━━━━━━━━━━━━━╇━━━━━━━━━━━━╇━━━━━━━━━━━━━━━━━━━┩
│ input_layer_6       │ (None, 32, 32, 3) │          0 │ -                 │
│ (InputLayer)        │                   │            │                   │
├─────────────────────┼───────────────────┼────────────┼───────────────────┤
│ flatten_3 (Flatten) │ (None, 3072)      │          0 │ input_layer_6[0]… │
├─────────────────────┼───────────────────┼────────────┼───────────────────┤
│ dropout_3 (Dropout) │ (None, 3072)      │          0 │ flatten_3[0][0]   │
├─────────────────────┼───────────────────┼────────────┼───────────────────┤
│ dense_6 (Dense)     │ (None, 256)       │    786,688 │ dropout_3[0][0]   │
├─────────────────────┼───────────────────┼────────────┼───────────────────┤
│ p_re_lu_75 (PReLU)  │ (None, 256)       │        256 │ dense_6[0][0]     │
├─────────────────────┼───────────────────┼────────────┼───────────────────┤
│ dense_7 (Dense)     │ (None, 65536)     │ 16,842,752 │ p_re_lu_75[0][0]  │
├─────────────────────┼───────────────────┼────────────┼───────────────────┤
│ dense_8 (Dense)     │ (None, 65536)     │ 16,842,752 │ p_re_lu_75[0][0]  │
├─────────────────────┼───────────────────┼────────────┼───────────────────┤
│ dense_9 (Dense)     │ (None, 65536)     │ 16,842,752 │ p_re_lu_75[0][0]  │
├─────────────────────┼───────────────────┼────────────┼───────────────────┤
│ reshape_3 (Reshape) │ (None, 256, 256,  │          0 │ dense_7[0][0]     │
│                     │ 1)                │            │                   │
├─────────────────────┼───────────────────┼────────────┼───────────────────┤
│ reshape_4 (Reshape) │ (None, 256, 256,  │          0 │ dense_8[0][0]     │
…
│ (BatchNormalizatio… │ 16)               │            │                   │
├─────────────────────┼───────────────────┼────────────┼───────────────────┤
│ conv2d_120 (Conv2D) │ (None, 16, 16,    │      9,280 │ batch_normalizat… │
│                     │ 64)               │            │                   │
├─────────────────────┼───────────────────┼────────────┼───────────────────┤
│ p_re_lu_77 (PReLU)  │ (None, 16, 16,    │         64 │ conv2d_120[0][0]  │
│                     │ 64)               │            │                   │
├─────────────────────┼───────────────────┼────────────┼───────────────────┤
│ average_pooling2d_4 │ (None, 8, 8, 64)  │          0 │ p_re_lu_77[0][0]  │
│ (AveragePooling2D)  │                   │            │                   │
├─────────────────────┼───────────────────┼────────────┼───────────────────┤
│ batch_normalizatio… │ (None, 8, 8, 64)  │        256 │ average_pooling2… │
│ (BatchNormalizatio… │                   │            │                   │
├─────────────────────┼───────────────────┼────────────┼───────────────────┤
│ conv2d_121 (Conv2D) │ (None, 8, 8, 128) │     73,856 │ batch_normalizat… │
├─────────────────────┼───────────────────┼────────────┼───────────────────┤
│ p_re_lu_78 (PReLU)  │ (None, 8, 8, 128) │        128 │ conv2d_121[0][0]  │
├─────────────────────┼───────────────────┼────────────┼───────────────────┤
│ average_pooling2d_5 │ (None, 4, 4, 128) │          0 │ p_re_lu_78[0][0]  │
│ (AveragePooling2D)  │                   │            │                   │
├─────────────────────┼───────────────────┼────────────┼───────────────────┤
│ batch_normalizatio… │ (None, 4, 4, 128) │        512 │ average_pooling2… │
│ (BatchNormalizatio… │                   │            │                   │
├─────────────────────┼───────────────────┼────────────┼───────────────────┤
│ flatten_4 (Flatten) │ (None, 2048)      │          0 │ batch_normalizat… │
├─────────────────────┼───────────────────┼────────────┼───────────────────┤
│ dropout_4 (Dropout) │ (None, 2048)      │          0 │ flatten_4[0][0]   │
├─────────────────────┼───────────────────┼────────────┼───────────────────┤
│ dense_10 (Dense)    │ (None, 256)       │    524,544 │ dropout_4[0][0]   │
├─────────────────────┼───────────────────┼────────────┼───────────────────┤
│ p_re_lu_79 (PReLU)  │ (None, 256)       │        256 │ dense_10[0][0]    │
├─────────────────────┼───────────────────┼────────────┼───────────────────┤
│ dense_11 (Dense)    │ (None, 65536)     │ 16,842,752 │ p_re_lu_79[0][0]  │
├─────────────────────┼───────────────────┼────────────┼───────────────────┤
│ dense_12 (Dense)    │ (None, 65536)     │ 16,842,752 │ p_re_lu_79[0][0]  │
├─────────────────────┼───────────────────┼────────────┼───────────────────┤
│ dense_13 (Dense)    │ (None, 65536)     │ 16,842,752 │ p_re_lu_79[0][0]  │
├─────────────────────┼───────────────────┼────────────┼───────────────────┤
│ reshape_6 (Reshape) │ (None, 256, 256,  │          0 │ dense_11[0][0]    │
│                     │ 1)                │            │                   │
├─────────────────────┼───────────────────┼────────────┼───────────────────┤
│ reshape_7 (Reshape) │ (None, 256, 256,  │          0 │ dense_12[0][0]    │
…
m3s[0m 22ms/step

Generating rainfall (log) from WMAE
Saved raw predictions to /nlsasfs/home/precipitation/midhunm/AI4KLIM/EXPMNTS/P07A_N123S123_L12_I123_B123_R1/codes/../p07a_s03_l01_i02_b01_r01_out_raw.npy

Initiate experiment: p07a_n01_l01_i02_b01_r01
Configuring model architecture
#### MODEL SUMMARY ####
Model: "LINEAR-DENSE"
┏━━━━━━━━━━━━━━━━━━━━━━━━━━━━━━━━━┳━━━━━━━━━━━━━━━━━━━━━━━━┳━━━━━━━━━━━━━━━┓
┃ Layer (type)                    ┃ Output Shape           ┃       Param # ┃
┡━━━━━━━━━━━━━━━━━━━━━━━━━━━━━━━━━╇━━━━━━━━━━━━━━━━━━━━━━━━╇━━━━━━━━━━━━━━━┩
│ input_layer_12 (InputLayer)     │ (None, 32, 32, 20)     │             0 │
├─────────────────────────────────┼────────────────────────┼───────────────┤
│ flatten_6 (Flatten)             │ (None, 20480)          │             0 │
├─────────────────────────────────┼────────────────────────┼───────────────┤
│ dropout_6 (Dropout)             │ (None, 20480)          │             0 │
├─────────────────────────────────┼────────────────────────┼───────────────┤
│ dense_18 (Dense)                │ (None, 256)            │     5,243,136 │
├─────────────────────────────────┼────────────────────────┼───────────────┤
│ p_re_lu_149 (PReLU)             │ (None, 256)            │           256 │
├─────────────────────────────────┼────────────────────────┼───────────────┤
│ dense_19 (Dense)                │ (None, 65536)          │    16,842,752 │
├─────────────────────────────────┼────────────────────────┼───────────────┤
│ p_re_lu_150 (PReLU)             │ (None, 65536)          │        65,536 │
├─────────────────────────────────┼────────────────────────┼───────────────┤
│ reshape_12 (Reshape)            │ (None, 256, 256, 1)    │             0 │
└─────────────────────────────────┴────────────────────────┴───────────────┘
 Total params: 22,151,680 (84.50 MB)
 Trainable params: 22,151,680 (84.50 MB)
 Non-trainable params: 0 (0.00 B)
None
Train Dataset Element Spec: (TensorSpec(shape=(None, 32, 32, 20), dtype=tf.float64, name=None), TensorSpec(shape=(None, 256, 256, 1), dtype=tf.float32, name=None))
Valid Dataset Element Spec: (TensorSpec(shape=(None, 32, 32, 20), dtype=tf.float64, name=None), TensorSpec(shape=(None, 256, 256, 1), dtype=tf.float32, name=None))
…
[1m0s[0m 2ms/step

Generating rainfall (log) from WMAE
Saved raw predictions to /nlsasfs/home/precipitation/midhunm/AI4KLIM/EXPMNTS/P07A_N123S123_L12_I123_B123_R1/codes/../p07a_n01_l01_i02_b01_r01_out_raw.npy

Initiate experiment: p07a_n02_l01_i02_b01_r01
Configuring model architecture
#### MODEL SUMMARY ####
Model: "CONV-DENSE"
┏━━━━━━━━━━━━━━━━━━━━━━━━━━━━━━━━━┳━━━━━━━━━━━━━━━━━━━━━━━━┳━━━━━━━━━━━━━━━┓
┃ Layer (type)                    ┃ Output Shape           ┃       Param # ┃
┡━━━━━━━━━━━━━━━━━━━━━━━━━━━━━━━━━╇━━━━━━━━━━━━━━━━━━━━━━━━╇━━━━━━━━━━━━━━━┩
│ input_layer_13 (InputLayer)     │ (None, 32, 32, 20)     │             0 │
├─────────────────────────────────┼────────────────────────┼───────────────┤
│ conv2d_244 (Conv2D)             │ (None, 32, 32, 16)     │         2,896 │
├─────────────────────────────────┼────────────────────────┼───────────────┤
│ p_re_lu_151 (PReLU)             │ (None, 32, 32, 16)     │            16 │
├─────────────────────────────────┼────────────────────────┼───────────────┤
│ average_pooling2d_6             │ (None, 16, 16, 16)     │             0 │
│ (AveragePooling2D)              │                        │               │
├─────────────────────────────────┼────────────────────────┼───────────────┤
│ batch_normalization_204         │ (None, 16, 16, 16)     │            64 │
│ (BatchNormalization)            │                        │               │
├─────────────────────────────────┼────────────────────────┼───────────────┤
│ conv2d_245 (Conv2D)             │ (None, 16, 16, 64)     │         9,280 │
├─────────────────────────────────┼────────────────────────┼───────────────┤
│ p_re_lu_152 (PReLU)             │ (None, 16, 16, 64)     │            64 │
├─────────────────────────────────┼────────────────────────┼───────────────┤
│ average_pooling2d_7             │ (None, 8, 8, 64)       │             0 │
│ (AveragePooling2D)              │                        │               │
├─────────────────────────────────┼────────────────────────┼───────────────┤
│ batch_normalization_205         │ (None, 8, 8, 64)       │           256 │
│ (BatchNormalization)            │                        │               │
├─────────────────────────────────┼────────────────────────┼───────────────┤
│ conv2d_246 (Conv2D)             │ (None, 8, 8, 128)      │        73,856 │
├─────────────────────────────────┼────────────────────────┼───────────────┤
│ p_re_lu_153 (PReLU)             │ (None, 8, 8, 128)      │           128 │
├─────────────────────────────────┼────────────────────────┼───────────────┤
│ average_pooling2d_8             │ (None, 4, 4, 128)      │             0 │
│ (AveragePooling2D)              │                        │               │
├─────────────────────────────────┼────────────────────────┼───────────────┤
│ batch_normalization_206         │ (None, 4, 4, 128)      │           512 │
│ (BatchNormalization)            │                        │               │
├─────────────────────────────────┼────────────────────────┼───────────────┤
│ flatten_7 (Flatten)             │ (None, 2048)           │             0 │
├─────────────────────────────────┼────────────────────────┼───────────────┤
│ dropout_7 (Dropout)             │ (None, 2048)           │             0 │
├─────────────────────────────────┼────────────────────────┼───────────────┤
│ dense_20 (Dense)                │ (None, 256)            │       524,544 │
├─────────────────────────────────┼────────────────────────┼───────────────┤
│ p_re_lu_154 (PReLU)             │ (None, 256)            │           256 │
├─────────────────────────────────┼────────────────────────┼───────────────┤
│ dense_21 (Dense)                │ (None, 65536)          │    16,842,752 │
├─────────────────────────────────┼────────────────────────┼───────────────┤
│ reshape_13 (Reshape)            │ (None, 256, 256, 1)    │             0 │
└─────────────────────────────────┴────────────────────────┴───────────────┘
 Total params: 17,454,624 (66.58 MB)
 Trainable params: 17,454,208 (66.58 MB)
 Non-trainable params: 416 (1.62 KB)
None
Train Dataset Element Spec: (TensorSpec(shape=(None, 32, 32, 20), dtype=tf.float64, name=None), TensorSpec(shape=(None, 256, 256, 1), dtype=tf.float32, name=None))
Valid Dataset Element Spec: (TensorSpec(shape=(None, 32, 32, 20), dtype=tf.float64, name=None), TensorSpec(shape=(None, 256, 256, 1), dtype=tf.float32, name=None))
…
[0m [1m1s[0m 5ms/step

Generating rainfall (log) from WMAE
Saved raw predictions to /nlsasfs/home/precipitation/midhunm/AI4KLIM/EXPMNTS/P07A_N123S123_L12_I123_B123_R1/codes/../p07a_n02_l01_i02_b01_r01_out_raw.npy

Initiate experiment: p07a_n03_l01_i02_b01_r01
Configuring model architecture
#### MODEL SUMMARY ####
Model: "FSRCNN"
┏━━━━━━━━━━━━━━━━━━━━━━━━━━━━━━━━━┳━━━━━━━━━━━━━━━━━━━━━━━━┳━━━━━━━━━━━━━━━┓
┃ Layer (type)                    ┃ Output Shape           ┃       Param # ┃
┡━━━━━━━━━━━━━━━━━━━━━━━━━━━━━━━━━╇━━━━━━━━━━━━━━━━━━━━━━━━╇━━━━━━━━━━━━━━━┩
│ input_layer_14 (InputLayer)     │ (None, 32, 32, 20)     │             0 │
├─────────────────────────────────┼────────────────────────┼───────────────┤
│ conv2d_247 (Conv2D)             │ (None, 32, 32, 64)     │        32,064 │
├─────────────────────────────────┼────────────────────────┼───────────────┤
│ p_re_lu_155 (PReLU)             │ (None, 32, 32, 64)     │            64 │
├─────────────────────────────────┼────────────────────────┼───────────────┤
│ conv2d_248 (Conv2D)             │ (None, 32, 32, 32)     │         2,080 │
├─────────────────────────────────┼────────────────────────┼───────────────┤
│ p_re_lu_156 (PReLU)             │ (None, 32, 32, 32)     │            32 │
├─────────────────────────────────┼────────────────────────┼───────────────┤
│ conv2d_249 (Conv2D)             │ (None, 32, 32, 32)     │         9,248 │
├─────────────────────────────────┼────────────────────────┼───────────────┤
│ p_re_lu_157 (PReLU)             │ (None, 32, 32, 32)     │            32 │
├─────────────────────────────────┼────────────────────────┼───────────────┤
│ conv2d_250 (Conv2D)             │ (None, 32, 32, 32)     │         9,248 │
├─────────────────────────────────┼────────────────────────┼───────────────┤
│ p_re_lu_158 (PReLU)             │ (None, 32, 32, 32)     │            32 │
├─────────────────────────────────┼────────────────────────┼───────────────┤
│ conv2d_251 (Conv2D)             │ (None, 32, 32, 32)     │         9,248 │
├─────────────────────────────────┼────────────────────────┼───────────────┤
│ p_re_lu_159 (PReLU)             │ (None, 32, 32, 32)     │            32 │
├─────────────────────────────────┼────────────────────────┼───────────────┤
│ conv2d_252 (Conv2D)             │ (None, 32, 32, 32)     │         9,248 │
├─────────────────────────────────┼────────────────────────┼───────────────┤
│ p_re_lu_160 (PReLU)             │ (None, 32, 32, 32)     │            32 │
├─────────────────────────────────┼────────────────────────┼───────────────┤
│ conv2d_253 (Conv2D)             │ (None, 32, 32, 64)     │         2,112 │
├─────────────────────────────────┼────────────────────────┼───────────────┤
│ p_re_lu_161 (PReLU)             │ (None, 32, 32, 64)     │            64 │
├─────────────────────────────────┼────────────────────────┼───────────────┤
│ conv2d_transpose_12             │ (None, 64, 64, 128)    │        73,856 │
│ (Conv2DTranspose)               │                        │               │
├─────────────────────────────────┼────────────────────────┼───────────────┤
│ p_re_lu_162 (PReLU)             │ (None, 64, 64, 128)    │           128 │
├─────────────────────────────────┼────────────────────────┼───────────────┤
│ conv2d_transpose_13             │ (None, 128, 128, 128)  │       147,584 │
│ (Conv2DTranspose)               │                        │               │
├─────────────────────────────────┼────────────────────────┼───────────────┤
│ p_re_lu_163 (PReLU)             │ (None, 128, 128, 128)  │           128 │
├─────────────────────────────────┼────────────────────────┼───────────────┤
│ conv2d_transpose_14             │ (None, 256, 256, 128)  │       147,584 │
│ (Conv2DTranspose)               │                        │               │
├─────────────────────────────────┼────────────────────────┼───────────────┤
│ p_re_lu_164 (PReLU)             │ (None, 256, 256, 128)  │           128 │
├─────────────────────────────────┼────────────────────────┼───────────────┤
│ conv2d_254 (Conv2D)             │ (None, 256, 256, 1)    │         1,153 │
└─────────────────────────────────┴────────────────────────┴───────────────┘
 Total params: 444,097 (1.69 MB)
 Trainable params: 444,097 (1.69 MB)
 Non-trainable params: 0 (0.00 B)
None
Train Dataset Element Spec: (TensorSpec(shape=(None, 32, 32, 20), dtype=tf.float64, name=None), TensorSpec(shape=(None, 256, 256, 1), dtype=tf.float32, name=None))
Valid Dataset Element Spec: (TensorSpec(shape=(None, 32, 32, 20), dtype=tf.float64, name=None), TensorSpec(shape=(None, 256, 256, 1), dtype=tf.float32, name=None))
…
Initiate experiment: p07a_n01_l02_i02_b01_r01
Configuring model architecture
#### MODEL SUMMARY ####
Model: "LINEAR-DENSE-x3"
┏━━━━━━━━━━━━━━━━━━━━━┳━━━━━━━━━━━━━━━━━━━┳━━━━━━━━━━━━┳━━━━━━━━━━━━━━━━━━━┓
┃ Layer (type)        ┃ Output Shape      ┃    Param # ┃ Connected to      ┃
┡━━━━━━━━━━━━━━━━━━━━━╇━━━━━━━━━━━━━━━━━━━╇━━━━━━━━━━━━╇━━━━━━━━━━━━━━━━━━━┩
│ input_layer_18      │ (None, 32, 32,    │          0 │ -                 │
│ (InputLayer)        │ 20)               │            │                   │
├─────────────────────┼───────────────────┼────────────┼───────────────────┤
│ flatten_9 (Flatten) │ (None, 20480)     │          0 │ input_layer_18[0… │
├─────────────────────┼───────────────────┼────────────┼───────────────────┤
│ dropout_9 (Dropout) │ (None, 20480)     │          0 │ flatten_9[0][0]   │
├─────────────────────┼───────────────────┼────────────┼───────────────────┤
│ dense_24 (Dense)    │ (None, 256)       │  5,243,136 │ dropout_9[0][0]   │
├─────────────────────┼───────────────────┼────────────┼───────────────────┤
│ p_re_lu_224 (PReLU) │ (None, 256)       │        256 │ dense_24[0][0]    │
├─────────────────────┼───────────────────┼────────────┼───────────────────┤
│ dense_25 (Dense)    │ (None, 65536)     │ 16,842,752 │ p_re_lu_224[0][0] │
├─────────────────────┼───────────────────┼────────────┼───────────────────┤
│ dense_26 (Dense)    │ (None, 65536)     │ 16,842,752 │ p_re_lu_224[0][0] │
├─────────────────────┼───────────────────┼────────────┼───────────────────┤
│ dense_27 (Dense)    │ (None, 65536)     │ 16,842,752 │ p_re_lu_224[0][0] │
├─────────────────────┼───────────────────┼────────────┼───────────────────┤
│ reshape_15          │ (None, 256, 256,  │          0 │ dense_25[0][0]    │
│ (Reshape)           │ 1)                │            │                   │
├─────────────────────┼───────────────────┼────────────┼───────────────────┤
│ reshape_16          │ (None, 256, 256,  │          0 │ dense_26[0][0]    │
…
m4s[0m 28ms/step

Generating rainfall (log) from WMAE
Saved raw predictions to /nlsasfs/home/precipitation/midhunm/AI4KLIM/EXPMNTS/P07A_N123S123_L12_I123_B123_R1/codes/../p07a_s03_l01_i03_b01_r01_out_raw.npy

Initiate experiment: p07a_n01_l01_i03_b01_r01
Configuring model architecture
#### MODEL SUMMARY ####
Model: "LINEAR-DENSE"
┏━━━━━━━━━━━━━━━━━━━━━━━━━━━━━━━━━┳━━━━━━━━━━━━━━━━━━━━━━━━┳━━━━━━━━━━━━━━━┓
┃ Layer (type)                    ┃ Output Shape           ┃       Param # ┃
┡━━━━━━━━━━━━━━━━━━━━━━━━━━━━━━━━━╇━━━━━━━━━━━━━━━━━━━━━━━━╇━━━━━━━━━━━━━━━┩
│ input_layer_24 (InputLayer)     │ (None, 32, 32, 23)     │             0 │
├─────────────────────────────────┼────────────────────────┼───────────────┤
│ flatten_12 (Flatten)            │ (None, 23552)          │             0 │
├─────────────────────────────────┼────────────────────────┼───────────────┤
│ dropout_12 (Dropout)            │ (None, 23552)          │             0 │
├─────────────────────────────────┼────────────────────────┼───────────────┤
│ dense_36 (Dense)                │ (None, 256)            │     6,029,568 │
├─────────────────────────────────┼────────────────────────┼───────────────┤
│ p_re_lu_298 (PReLU)             │ (None, 256)            │           256 │
├─────────────────────────────────┼────────────────────────┼───────────────┤
│ dense_37 (Dense)                │ (None, 65536)          │    16,842,752 │
├─────────────────────────────────┼────────────────────────┼───────────────┤
│ p_re_lu_299 (PReLU)             │ (None, 65536)          │        65,536 │
├─────────────────────────────────┼────────────────────────┼───────────────┤
│ reshape_24 (Reshape)            │ (None, 256, 256, 1)    │             0 │
└─────────────────────────────────┴────────────────────────┴───────────────┘
 Total params: 22,938,112 (87.50 MB)
 Trainable params: 22,938,112 (87.50 MB)
 Non-trainable params: 0 (0.00 B)
None
Train Dataset Element Spec: (TensorSpec(shape=(None, 32, 32, 23), dtype=tf.float64, name=None), TensorSpec(shape=(None, 256, 256, 1), dtype=tf.float32, name=None))
Valid Dataset Element Spec: (TensorSpec(shape=(None, 32, 32, 23), dtype=tf.float64, name=None), TensorSpec(shape=(None, 256, 256, 1), dtype=tf.float32, name=None))
…
[1m0s[0m 3ms/step

Generating rainfall (log) from WMAE
Saved raw predictions to /nlsasfs/home/precipitation/midhunm/AI4KLIM/EXPMNTS/P07A_N123S123_L12_I123_B123_R1/codes/../p07a_n01_l01_i03_b01_r01_out_raw.npy

Initiate experiment: p07a_n02_l01_i03_b01_r01
Configuring model architecture
#### MODEL SUMMARY ####
Model: "CONV-DENSE"
┏━━━━━━━━━━━━━━━━━━━━━━━━━━━━━━━━━┳━━━━━━━━━━━━━━━━━━━━━━━━┳━━━━━━━━━━━━━━━┓
┃ Layer (type)                    ┃ Output Shape           ┃       Param # ┃
┡━━━━━━━━━━━━━━━━━━━━━━━━━━━━━━━━━╇━━━━━━━━━━━━━━━━━━━━━━━━╇━━━━━━━━━━━━━━━┩
│ input_layer_25 (InputLayer)     │ (None, 32, 32, 23)     │             0 │
├─────────────────────────────────┼────────────────────────┼───────────────┤
│ conv2d_488 (Conv2D)             │ (None, 32, 32, 16)     │         3,328 │
├─────────────────────────────────┼────────────────────────┼───────────────┤
│ p_re_lu_300 (PReLU)             │ (None, 32, 32, 16)     │            16 │
├─────────────────────────────────┼────────────────────────┼───────────────┤
│ average_pooling2d_12            │ (None, 16, 16, 16)     │             0 │
│ (AveragePooling2D)              │                        │               │
├─────────────────────────────────┼────────────────────────┼───────────────┤
│ batch_normalization_408         │ (None, 16, 16, 16)     │            64 │
│ (BatchNormalization)            │                        │               │
├─────────────────────────────────┼────────────────────────┼───────────────┤
│ conv2d_489 (Conv2D)             │ (None, 16, 16, 64)     │         9,280 │
├─────────────────────────────────┼────────────────────────┼───────────────┤
│ p_re_lu_301 (PReLU)             │ (None, 16, 16, 64)     │            64 │
├─────────────────────────────────┼────────────────────────┼───────────────┤
│ average_pooling2d_13            │ (None, 8, 8, 64)       │             0 │
│ (AveragePooling2D)              │                        │               │
├─────────────────────────────────┼────────────────────────┼───────────────┤
│ batch_normalization_409         │ (None, 8, 8, 64)       │           256 │
│ (BatchNormalization)            │                        │               │
├─────────────────────────────────┼────────────────────────┼───────────────┤
│ conv2d_490 (Conv2D)             │ (None, 8, 8, 128)      │        73,856 │
├─────────────────────────────────┼────────────────────────┼───────────────┤
│ p_re_lu_302 (PReLU)             │ (None, 8, 8, 128)      │           128 │
├─────────────────────────────────┼────────────────────────┼───────────────┤
│ average_pooling2d_14            │ (None, 4, 4, 128)      │             0 │
│ (AveragePooling2D)              │                        │               │
├─────────────────────────────────┼────────────────────────┼───────────────┤
│ batch_normalization_410         │ (None, 4, 4, 128)      │           512 │
│ (BatchNormalization)            │                        │               │
├─────────────────────────────────┼────────────────────────┼───────────────┤
│ flatten_13 (Flatten)            │ (None, 2048)           │             0 │
├─────────────────────────────────┼────────────────────────┼───────────────┤
│ dropout_13 (Dropout)            │ (None, 2048)           │             0 │
├─────────────────────────────────┼────────────────────────┼───────────────┤
│ dense_38 (Dense)                │ (None, 256)            │       524,544 │
├─────────────────────────────────┼────────────────────────┼───────────────┤
│ p_re_lu_303 (PReLU)             │ (None, 256)            │           256 │
├─────────────────────────────────┼────────────────────────┼───────────────┤
│ dense_39 (Dense)                │ (None, 65536)          │    16,842,752 │
├─────────────────────────────────┼────────────────────────┼───────────────┤
│ reshape_25 (Reshape)            │ (None, 256, 256, 1)    │             0 │
└─────────────────────────────────┴────────────────────────┴───────────────┘
 Total params: 17,455,056 (66.59 MB)
 Trainable params: 17,454,640 (66.58 MB)
 Non-trainable params: 416 (1.62 KB)
None
Train Dataset Element Spec: (TensorSpec(shape=(None, 32, 32, 23), dtype=tf.float64, name=None), TensorSpec(shape=(None, 256, 256, 1), dtype=tf.float32, name=None))
Valid Dataset Element Spec: (TensorSpec(shape=(None, 32, 32, 23), dtype=tf.float64, name=None), TensorSpec(shape=(None, 256, 256, 1), dtype=tf.float32, name=None))
…
[0m [1m1s[0m 7ms/step

Generating rainfall (log) from WMAE
Saved raw predictions to /nlsasfs/home/precipitation/midhunm/AI4KLIM/EXPMNTS/P07A_N123S123_L12_I123_B123_R1/codes/../p07a_n02_l01_i03_b01_r01_out_raw.npy

Initiate experiment: p07a_n03_l01_i03_b01_r01
Configuring model architecture
#### MODEL SUMMARY ####
Model: "FSRCNN"
┏━━━━━━━━━━━━━━━━━━━━━━━━━━━━━━━━━┳━━━━━━━━━━━━━━━━━━━━━━━━┳━━━━━━━━━━━━━━━┓
┃ Layer (type)                    ┃ Output Shape           ┃       Param # ┃
┡━━━━━━━━━━━━━━━━━━━━━━━━━━━━━━━━━╇━━━━━━━━━━━━━━━━━━━━━━━━╇━━━━━━━━━━━━━━━┩
│ input_layer_26 (InputLayer)     │ (None, 32, 32, 23)     │             0 │
├─────────────────────────────────┼────────────────────────┼───────────────┤
│ conv2d_491 (Conv2D)             │ (None, 32, 32, 64)     │        36,864 │
├─────────────────────────────────┼────────────────────────┼───────────────┤
│ p_re_lu_304 (PReLU)             │ (None, 32, 32, 64)     │            64 │
├─────────────────────────────────┼────────────────────────┼───────────────┤
│ conv2d_492 (Conv2D)             │ (None, 32, 32, 32)     │         2,080 │
├─────────────────────────────────┼────────────────────────┼───────────────┤
│ p_re_lu_305 (PReLU)             │ (None, 32, 32, 32)     │            32 │
├─────────────────────────────────┼────────────────────────┼───────────────┤
│ conv2d_493 (Conv2D)             │ (None, 32, 32, 32)     │         9,248 │
├─────────────────────────────────┼────────────────────────┼───────────────┤
│ p_re_lu_306 (PReLU)             │ (None, 32, 32, 32)     │            32 │
├─────────────────────────────────┼────────────────────────┼───────────────┤
│ conv2d_494 (Conv2D)             │ (None, 32, 32, 32)     │         9,248 │
├─────────────────────────────────┼────────────────────────┼───────────────┤
│ p_re_lu_307 (PReLU)             │ (None, 32, 32, 32)     │            32 │
├─────────────────────────────────┼────────────────────────┼───────────────┤
│ conv2d_495 (Conv2D)             │ (None, 32, 32, 32)     │         9,248 │
├─────────────────────────────────┼────────────────────────┼───────────────┤
│ p_re_lu_308 (PReLU)             │ (None, 32, 32, 32)     │            32 │
├─────────────────────────────────┼────────────────────────┼───────────────┤
│ conv2d_496 (Conv2D)             │ (None, 32, 32, 32)     │         9,248 │
├─────────────────────────────────┼────────────────────────┼───────────────┤
│ p_re_lu_309 (PReLU)             │ (None, 32, 32, 32)     │            32 │
├─────────────────────────────────┼────────────────────────┼───────────────┤
│ conv2d_497 (Conv2D)             │ (None, 32, 32, 64)     │         2,112 │
├─────────────────────────────────┼────────────────────────┼───────────────┤
│ p_re_lu_310 (PReLU)             │ (None, 32, 32, 64)     │            64 │
├─────────────────────────────────┼────────────────────────┼───────────────┤
│ conv2d_transpose_24             │ (None, 64, 64, 128)    │        73,856 │
│ (Conv2DTranspose)               │                        │               │
├─────────────────────────────────┼────────────────────────┼───────────────┤
│ p_re_lu_311 (PReLU)             │ (None, 64, 64, 128)    │           128 │
├─────────────────────────────────┼────────────────────────┼───────────────┤
│ conv2d_transpose_25             │ (None, 128, 128, 128)  │       147,584 │
│ (Conv2DTranspose)               │                        │               │
├─────────────────────────────────┼────────────────────────┼───────────────┤
│ p_re_lu_312 (PReLU)             │ (None, 128, 128, 128)  │           128 │
├─────────────────────────────────┼────────────────────────┼───────────────┤
│ conv2d_transpose_26             │ (None, 256, 256, 128)  │       147,584 │
│ (Conv2DTranspose)               │                        │               │
├─────────────────────────────────┼────────────────────────┼───────────────┤
│ p_re_lu_313 (PReLU)             │ (None, 256, 256, 128)  │           128 │
├─────────────────────────────────┼────────────────────────┼───────────────┤
│ conv2d_498 (Conv2D)             │ (None, 256, 256, 1)    │         1,153 │
└─────────────────────────────────┴────────────────────────┴───────────────┘
 Total params: 448,897 (1.71 MB)
 Trainable params: 448,897 (1.71 MB)
 Non-trainable params: 0 (0.00 B)
None
Train Dataset Element Spec: (TensorSpec(shape=(None, 32, 32, 23), dtype=tf.float64, name=None), TensorSpec(shape=(None, 256, 256, 1), dtype=tf.float32, name=None))
Valid Dataset Element Spec: (TensorSpec(shape=(None, 32, 32, 23), dtype=tf.float64, name=None), TensorSpec(shape=(None, 256, 256, 1), dtype=tf.float32, name=None))
…
Initiate experiment: p07a_n01_l02_i03_b01_r01
Configuring model architecture
#### MODEL SUMMARY ####
Model: "LINEAR-DENSE-x3"
┏━━━━━━━━━━━━━━━━━━━━━┳━━━━━━━━━━━━━━━━━━━┳━━━━━━━━━━━━┳━━━━━━━━━━━━━━━━━━━┓
┃ Layer (type)        ┃ Output Shape      ┃    Param # ┃ Connected to      ┃
┡━━━━━━━━━━━━━━━━━━━━━╇━━━━━━━━━━━━━━━━━━━╇━━━━━━━━━━━━╇━━━━━━━━━━━━━━━━━━━┩
│ input_layer_30      │ (None, 32, 32,    │          0 │ -                 │
│ (InputLayer)        │ 23)               │            │                   │
├─────────────────────┼───────────────────┼────────────┼───────────────────┤
│ flatten_15          │ (None, 23552)     │          0 │ input_layer_30[0… │
│ (Flatten)           │                   │            │                   │
├─────────────────────┼───────────────────┼────────────┼───────────────────┤
│ dropout_15          │ (None, 23552)     │          0 │ flatten_15[0][0]  │
│ (Dropout)           │                   │            │                   │
├─────────────────────┼───────────────────┼────────────┼───────────────────┤
│ dense_42 (Dense)    │ (None, 256)       │  6,029,568 │ dropout_15[0][0]  │
├─────────────────────┼───────────────────┼────────────┼───────────────────┤
│ p_re_lu_373 (PReLU) │ (None, 256)       │        256 │ dense_42[0][0]    │
├─────────────────────┼───────────────────┼────────────┼───────────────────┤
│ dense_43 (Dense)    │ (None, 65536)     │ 16,842,752 │ p_re_lu_373[0][0] │
├─────────────────────┼───────────────────┼────────────┼───────────────────┤
│ dense_44 (Dense)    │ (None, 65536)     │ 16,842,752 │ p_re_lu_373[0][0] │
├─────────────────────┼───────────────────┼────────────┼───────────────────┤
│ dense_45 (Dense)    │ (None, 65536)     │ 16,842,752 │ p_re_lu_373[0][0] │
├─────────────────────┼───────────────────┼────────────┼───────────────────┤
│ reshape_27          │ (None, 256, 256,  │          0 │ dense_43[0][0]    │
│ (Reshape)           │ 1)                │            │                   │
├─────────────────────┼───────────────────┼────────────┼───────────────────┤
│ reshape_28          │ (None, 256, 256,  │          0 │ dense_44[0][0]    │
…
